_________________________________________________________________
Layer (type)                 Output Shape              Param #   
=================================================================
flatten_1 (Flatten)          (None, 4)                 0         
_________________________________________________________________
dense_1 (Dense)              (None, 16)                80        
_________________________________________________________________
activation_1 (Activation)    (None, 16)                0         
_________________________________________________________________
dense_2 (Dense)              (None, 16)                272       
_________________________________________________________________
activation_2 (Activation)    (None, 16)                0         
_________________________________________________________________
dense_3 (Dense)              (None, 16)                272       
_________________________________________________________________
activation_3 (Activation)    (None, 16)                0         
_________________________________________________________________
dense_4 (Dense)              (None, 2)                 34        
_________________________________________________________________
activation_4 (Activation)    (None, 2)                 0         
=================================================================
Total params: 658
Trainable params: 658
Non-trainable params: 0
_________________________________________________________________
None
_________________________________________________________________
Layer (type)                 Output Shape              Param #   
=================================================================
flatten_2 (Flatten)          (None, 4)                 0         
_________________________________________________________________
dense_5 (Dense)              (None, 2)                 10        
_________________________________________________________________
activation_5 (Activation)    (None, 2)                 0         
=================================================================
Total params: 10
Trainable params: 10
Non-trainable params: 0
_________________________________________________________________
None
_________________________________________________________________
Layer (type)                 Output Shape              Param #   
=================================================================
flatten_3 (Flatten)          (None, 4)                 0         
_________________________________________________________________
dense_6 (Dense)              (None, 16)                80        
_________________________________________________________________
activation_6 (Activation)    (None, 16)                0         
_________________________________________________________________
dense_7 (Dense)              (None, 16)                272       
_________________________________________________________________
activation_7 (Activation)    (None, 16)                0         
_________________________________________________________________
dense_8 (Dense)              (None, 16)                272       
_________________________________________________________________
activation_8 (Activation)    (None, 16)                0         
_________________________________________________________________
dense_9 (Dense)              (None, 2)                 34        
_________________________________________________________________
activation_9 (Activation)    (None, 2)                 0         
=================================================================
Total params: 658
Trainable params: 658
Non-trainable params: 0
_________________________________________________________________
None
_________________________________________________________________
Layer (type)                 Output Shape              Param #   
=================================================================
flatten_4 (Flatten)          (None, 4)                 0         
_________________________________________________________________
dense_10 (Dense)             (None, 16)                80        
_________________________________________________________________
activation_10 (Activation)   (None, 16)                0         
_________________________________________________________________
dense_11 (Dense)             (None, 16)                272       
_________________________________________________________________
activation_11 (Activation)   (None, 16)                0         
_________________________________________________________________
dense_12 (Dense)             (None, 16)                272       
_________________________________________________________________
activation_12 (Activation)   (None, 16)                0         
_________________________________________________________________
dense_13 (Dense)             (None, 2)                 34        
=================================================================
Total params: 658
Trainable params: 658
Non-trainable params: 0
_________________________________________________________________
None
TEMPO:  1561719212.1217005
Training for 2900 steps ...
   39/2900: episode: 1, duration: 1.203s, episode steps: 39, steps per second: 32, episode reward: 39.000, mean reward: 1.000 [1.000, 1.000], mean action: 0.487 [0.000, 1.000], mean observation: 0.153 [-0.990, 1.781], loss: 0.410294, mean_absolute_error: 0.561611, mean_q: 0.255399
…
